HW3/EX1/mlp.tflite (tflite, 75508 bytes, 6 tensors)

sequential/dense/BiasAdd/ReadVariableOp/resource f4 [2]
00000000: a230 3a3f 7c95 9e3f
0.7273046 1.2389369

sequential/fc1/BiasAdd/ReadVariableOp/resource f4 [128]
00000000: 946f 9bbe 3986 983e 4a9b 5abf b38a 87be
00000010: f54d 913f 6bf1 b7be e7c0 903f 32ee 19bf
00000020: 3813 b9be 4b10 973f a1b2 dabe 2844 99be
00000030: 7a29 3fbe 9c1b 77be 09a1 a5be 07a8 22bf
00000040: b39c 48bf f493 75be 58ba 03bf 5fb0 d1be
00000050: 82b5 0dbf 1b2e 7e3f fca5 edbe 76c9 823f
00000060: 61da 043e 7ad1 823f 0cf1 2abe 0fa6 f33d
00000070: b480 49be 0b14 933f fea4 c8be a845 b2be
00000080: b490 ecbe de2b 12bf 4d7c cdbe 6b57 883e
00000090: b6b2 f73c 2be9 97be 0665 39bf db40 28bf
000000a0: f31b 34bf eee1 53be 6fe4 6abe 0d95 f1be
000000b0: 2c9c e4be 93bd 97be dd97 e8be 6c4d 55bf
000000c0: c95b f9be 3431 e1be 1f53 26bf 33dc 373f
000000d0: e1ac 173f 8705 d2be ca88 08bf edce 18bf
000000e0: 0769 f9be 037b 93be c930 dbbe 3189 e6be
000000f0: aced cebe bcdd f23e d84f 423e e455 d3bd
00000100: bae1 763f 8621 103e 6230 96be caa4 17bf
00000110: 1d9b a9be db8a bcbe 5b23 32bf 801a fbbe
00000120: 09de b63e e085 20bf 9e7f 64be 6538 f4be
00000130: 7d02 943f 5781 22be 88c6 d6be cbc1 b8be
00000140: 714a 953f 1461 603f 914b cdbe bf3f 663f
00000150: 0899 903f 8291 05bf c476 21bf 7f79 bdbe
00000160: 5983 01bf 5249 cabe b991 9c3f 505f 5fbf
00000170: cb85 2fbe 83cb 35be 1fa0 7dbe 9bdb 963f
00000180: 9bfa c0be aeaa 6cbe d49d 30be 8aaa a0be
00000190: 3ec7 89be ce58 50be f076 79be fc46 7fbe
000001a0: 22ef 4abe 56cd 8b3f ff97 c9be 954d d3be
000001b0: 5038 04bf 4156 5e3f 9349 c1be 543b 903f
000001c0: 5af4 9dbe b840 8ebe 915b 4dbe 8acb 21bf
000001d0: b134 b8be d03b 8e3f ebb3 11bf 7375 f23e
000001e0: 3919 93be b681 103e db80 723e 6275 a4bc
000001f0: f882 d4be 6298 713f 97d1 ffbe dc18 babe
-0.30358565 0.29789904 -0.853932 -0.26473007 1.1351916 -0.35926375 1.1308869 -0.6012908
-0.36147475 1.1801847 -0.42714408 -0.29934812 -0.18668166 -0.24131626 -0.32349423 -0.6353764
-0.78364104 -0.23982221 -0.51456213 -0.40954873 -0.55355084 0.992891 -0.464157 1.0217731
0.1297393 1.0220177 -0.16693515 0.118969075 -0.19678003 1.1490492 -0.3918838 -0.34818769
-0.4620415 -0.57098186 -0.40133896 0.26629195 0.030236583 -0.2967008 -0.72419775 -0.6572396
-0.7035515 -0.20691654 -0.22938703 -0.4718403 -0.446504 -0.2963682 -0.45428362 -0.8332126
-0.4870284 -0.43982852 -0.6497058 0.7182037 0.5924817 -0.41019842 -0.53333724 -0.59690744
-0.48712942 -0.28804788 -0.42810658 -0.45026544 -0.40415704 0.47434795 0.1897577 -0.10319117
0.9643818 0.14075288 -0.29333788 -0.59235823 -0.33126155 -0.36824688 -0.695852 -0.49043655
0.35716274 -0.6270428 -0.22314307 -0.47699276 1.1563259 -0.15869652 -0.41948342 -0.36085352
1.1663343 0.8764813 -0.40096715 0.8994102 1.1296701 -0.5217515 -0.63071847 -0.37006757
-0.50591046 -0.39509064 1.2231971 -0.8725481 -0.17140882 -0.17753415 -0.24768113 1.1785768
-0.37691197 -0.23111984 -0.17247707 -0.3138011 -0.26909822 -0.20346376 -0.24361777 -0.24929422
-0.19817784 1.0922039 -0.39373776 -0.41270128 -0.51648426 0.86850363 -0.37751445 1.1268106
-0.30850488 -0.2778375 -0.20054461 -0.632012 -0.359777 1.1112003 -0.5691516 0.47355232
-0.2873018 0.14111981 0.23681967 -0.020075504 -0.4150617 0.9437314 -0.49964592 -0.3634709

sequential/fc2/BiasAdd/ReadVariableOp/resource f4 [128]
00000000: 4884 24bd f262 7fbd f514 9dbd 7cc7 933f
00000010: 9fbf 623f 72e7 f83a 387e 3fbd 47ed 66bd
00000020: 87e9 6c3f 3756 773f 9121 ebbe d0d2 573e
00000030: 0d24 38bd 96b8 943f c7f8 943f bfd9 74be
00000040: 2b62 5e3f 6a86 a03f 99e8 4f3f 4773 1e3d
00000050: 43ae 65bd 2d4b dd3e b612 883f 32a4 603f
00000060: 35d3 e6bc b7a0 8a3f e4b4 60bd b8bc 51bd
00000070: f942 a7bc 1cdb 08bd a291 923f 3e5d 583f
00000080: 74b7 3abd fb80 433f c96a 95bd be28 783f
00000090: 7cda e93e 0908 113e 2d65 6e3f 8bf9 873f
000000a0: b2cf 8d3f 2fa9 4bbd 36ac 94bc 6c83 94bc
000000b0: 8896 343f 2f27 82bd 9205 a9bc b485 39bd
000000c0: cd11 0c3f a093 293f 9521 1c3f 446c e5bc
000000d0: 7c3a 773e eb8f 3bbd 865e 7f3f 61e5 3bbd
000000e0: fd37 603f d5d7 04bd f171 5bbd f992 733f
000000f0: 1152 a23f aea3 703f ac0d 6dbd bfe3 94bd
00000100: 4e94 75bd 33bb 9b3e a69e c5bd d155 11bd
00000110: 0563 8c3e e125 9b3f d0a5 74be d52d 8c3f
00000120: 4c12 fdbd c829 5f3f 3e0b 02bd bbab d43e
00000130: 301c 973f e98c 333f 68c0 8b3f a49e 653f
00000140: 2109 9abd 427c 873f e9c4 483f ae25 933f
00000150: ed74 97bc 2892 6fbd a68f 883f 5aef a4bd
00000160: d1df 43bd 1371 2b3f ab3e 08be d3f4 53bd
00000170: fff6 1e3f eb6e 5fbc 7969 39bd 89d4 f8bc
00000180: 1c64 903f 7059 32bd f7d1 53bd 65b5 9cbc
00000190: aec4 96bc 4f25 e23e 554f b73e 7960 a23f
000001a0: 9703 9c3f d3e9 f2bc 7913 d43e 52d1 efbc
000001b0: b44f 8bbc 0e35 993f bf45 563f da5b 5fbd
000001c0: 6cdd 943f 5f48 90bd 021f 4abd e4f3 903f
000001d0: f69e 983f 2c22 dbbc 4d32 843f 9c26 7bbd
000001e0: 51e5 9e3f 0398 b2bc c78c febc 6a1d 8e3f
000001f0: 3a65 8c3f 0f16 5ebc 3239 9a3f 3547 523f
-0.040165216 -0.06235022 -0.07670013 1.1545253 0.8857364 0.0018989875 -0.04675123 -0.05637863
0.92543834 0.9661593 -0.45924047 0.21076512 -0.044956256 1.1618831 1.1638421 -0.23911189
0.8686854 1.254102 0.8121429 0.038684156 -0.056074392 0.43221417 1.063071 0.8775054
-0.028176883 1.0830296 -0.05486001 -0.051205367 -0.020417677 -0.033412084 1.1450694 0.84517276
-0.04558511 0.76368684 -0.07295758 0.9693717 0.45674503 0.14163221 0.9312313 1.062303
1.1079009 -0.049721893 -0.018148523 -0.018129073 0.7054219 -0.0635513 -0.020632539 -0.045293525
0.5471466 0.6624088 0.6098874 -0.028005727 0.24143404 -0.045791548 0.99753606 -0.04587305
0.8758543 -0.032432396 -0.05357546 0.9514614 1.2681295 0.93999755 -0.057874367 -0.072700016
-0.059955887 0.3041626 -0.096494004 -0.03548223 0.27419296 1.2120935 -0.23891377 1.0951487
-0.123570055 0.8717313 -0.031749003 0.4153727 1.1805477 0.70136887 1.0918093 0.8969519
-0.075212725 1.0584795 0.7842546 1.1495874 -0.018488372 -0.058488995 1.0668838 -0.08053465
-0.04782087 0.6696941 -0.13305156 -0.051747154 0.62095636 -0.013637285 -0.045266602 -0.030374782
1.1280551 -0.043542325 -0.05171391 -0.019129464 -0.018404331 0.4416909 0.35802713 1.2685691
1.2188596 -0.029652512 0.41421106 -0.029274616 -0.017005779 1.1969316 0.83700174 -0.054530956
1.1630073 -0.07045054 -0.049345978 1.132443 1.1923511 -0.026749693 1.032785 -0.061316118
1.2413732 -0.021801 -0.031072987 1.1102726 1.0968392 -0.013555064 1.2048705 0.82139903

sequential/dense/MatMul f4 [2, 128]
00000000: f8d5 003e 1de2 873c 6047 2fbd 54b5 983e
00000010: 1378 35be fb14 b33d 8de0 2b3e 9b6f b23d
00000020: 5b06 473e 609e d2bd 9343 123f 7d58 dbbb
00000030: c905 853d a74b 203e 8bfe c73d 30f8 c93e
00000040: 9b90 0fbe 828a 793e 44eb 9fbe a52c 893d
00000050: 162b 85bd ad87 763c b1a4 2d3e f6eb 113e
00000060: 10de 48be 0ea1 343e 6ca1 c13d 5cea 19bd
00000070: 759f 84bd 581d 5a3e 8584 3a3e 8b3b 94be
00000080: 914a 683e 8980 89be 677f 57bb bfcf bc3d
00000090: 5083 f1bc 0e34 24bc b089 a4bd 25e2 a4bc
000000a0: 91aa 293e d5fb f63c 2969 553e 2a78 bbbd
000000b0: f0f1 443d e72a b73d a0c2 43bd 434d 8fbc
000000c0: 7d2d 743d d923 4dbe a8da 13be f66f 27be
000000d0: 9b65 e2bc 5cb5 a7bd 4a93 c0bd 9079 7a3d
000000e0: 144c 9abe a416 4dbe 1906 ef3c 6fc9 233e
000000f0: ad0c 343e 0b63 10be 0604 8e3d 9f80 93bd
00000100: e6df 0cbe 416b 2e3d 47e9 76bd 47eb fb3c
00000110: d862 043f a1c7 ff3d a695 0c3f ff41 133d
00000120: ea92 393e bf65 a1be 0b2d c23d c932 15be
00000130: 46f7 843e f7ed 5ebe c66c d93e f696 83be
00000140: 4a2d 79bd 42c7 453e c277 ebbd e6b6 f83c
00000150: 1e81 2f3e 5a64 0a3c f29e 2cbd cafc 9e3e
00000160: b4da 883d f534 32be dd63 40be 135e 03bc
00000170: c9cd abbe bb2c a7bc 4ce6 44bc c449 6fbe
00000180: ffd4 003f 040d 22bc 4ef0 0d3c aacb 3a3d
00000190: d5f1 8b3c 6999 86bd 5b73 d9bb 9f56 ea3e
000001a0: 4477 a73e 5d9c 893d 0c91 43bd 72b5 36be
000001b0: 5718 2ebe 141d b9b9 f60c 9abe c4b9 0bbe
000001c0: 65be 683e c2b1 cf3c 4491 4dbd 033d 4d3e
000001d0: b027 213e e2e1 92bd 1071 3cbd 11c2 15be
000001e0: bff0 d23e a10c 933d 16ec 8a3e cc8a 353e
000001f0: e52d 333e 19e3 443e 5757 423e 3366 87be
00000200: 4699 64bc 2305 233c 0992 713c 67bf 483e
00000210: b192 5d3e ee70 bfbd 7f6d f9bd 8969 43bd
00000220: ef35 4a3d a8ad 823e da86 5bbe 5229 913c
00000230: 9b3a b83b 2d1c 983e b3d3 943e e65f cebe
00000240: abb0 263e 655b ae3e 9826 7c3e 7c77 2ebe
00000250: 6996 6ebd 05e9 8ebb d33e 403e a9b0 ea3c
00000260: eb4b 39be 6619 573e 2ca6 92bd ad8d a0bc
00000270: 0f72 9bbd 4f0d cfbc 24c2 7d3e 0d72 673e
00000280: b97d 8bbd b89a 493e 0ac6 9bbd 134b 663e
00000290: 900e 51bc 6b5f 843c b3a4 3f3e 3752 9c3e
000002a0: d2f2 783e 774b 19be 716d a2bc 6d00 803b
000002b0: 8e73 52bd f8a1 efbc 7333 79bd 1959 4cbd
000002c0: c8f3 dcbb 10ff e53d ea69 823d f7b2 14bd
000002d0: f067 3ebc d2c8 3ebd c9d9 893e dbdb 23be
000002e0: 6150 933e dc37 06be 7482 81bd 0e6c 3f3d
000002f0: 4e5d fd3e ea3a 833e 282b 53bd 4bde 08bc
00000300: ebb5 3d3c a8ca 3fbb 910f 9ebd ec96 a3bc
00000310: 9c15 103d 1d0d b53e efe9 c7be 8f58 a73e
00000320: cee2 6abe e87c 963e c6f7 86bb a596 d43c
00000330: c36c 513e d78d e83d a444 173e 2b84 873e
00000340: df5f 45be 9c68 273e c471 c03d 5a3d 983e
00000350: 583d d7bd 6801 12bd d65d ab3e ea20 b4bd
00000360: c3d5 c4bc 670a 953d ebce c1be 2608 813c
00000370: 92b1 183e 1ffa 15be 2358 efbd a09e 6abd
00000380: 93d2 2f3e 9530 89bb 5ceb e4bd 754c 14be
00000390: 8c7a 15be 780d 98bc cb1a 48bc bddd a33e
000003a0: dca1 a33e 30dc 02be a906 69bd b4e7 10be
000003b0: cfac abbd 6a18 e03e be54 7a3e e616 cdbc
000003c0: 9724 833e 8a95 463d 29e7 c5bc 0dc1 893e
000003d0: 20ce 903e aed2 d4bd 42bc 023f b4c5 13bd
000003e0: bc06 9b3e b15a f6bd c1e7 0fbe 9db3 7e3e
000003f0: a590 523e c977 3dbd 4b2b 943e 2367 593e
0.12581623 0.016587311 -0.042792678 0.29825842 -0.17721586 0.08744236 0.16784878 0.08712693
0.19436018 -0.10284114 0.5713436 -0.0066938982 0.06495244 0.15653859 0.09765347 0.39447165
-0.14020006 0.24369243 -0.3123418 0.066979684 -0.065023586 0.015046996 0.16957356 0.14250168
-0.1961596 0.17639562 0.09454617 -0.03757702 -0.064757265 0.21300256 0.18214615 -0.28951678
0.22684695 -0.26855877 -0.0032882334 0.09219312 -0.02948156 -0.010022176 -0.08034074 -0.020127365
0.16568972 0.03014938 0.20840897 -0.09153779 0.048082292 0.0894373 -0.04779303 -0.017492896
0.059613694 -0.20033206 -0.1443888 -0.16351303 -0.02763634 -0.081888884 -0.09403093 0.061151087
-0.30136168 -0.20028168 0.029177712 0.1599481 0.1758296 -0.14100282 0.06934361 -0.07202267
-0.13757285 0.042582754 -0.060281064 0.030751837 0.51713324 0.12489248 0.54915845 0.03595161
0.1812245 -0.3152294 0.094812475 -0.14570154 0.25969905 -0.21770464 0.424658 -0.25701112
-0.060834207 0.19314292 -0.11497451 0.03036065 0.17139098 0.008446777 -0.04214377 0.31052238
0.06682339 -0.17403014 -0.18788095 -0.0080180345 -0.3355544 -0.020407071 -0.012017798 -0.23367983
0.50325006 -0.0098907985 0.00866325 0.045604385 0.017083088 -0.065722294 -0.006636066 0.45769212
0.3270818 0.06719277 -0.04774575 -0.17842653 -0.17001472 -0.00035307615 -0.30088013 -0.13645083
0.2272888 0.025353316 -0.050187364 0.20042805 0.15737796 -0.0717199 -0.046006262 -0.14624812
0.411993 0.07180143 0.27133244 0.17728728 0.17497976 0.19227256 0.1897863 -0.2644516
-0.013952559 0.009949955 0.01474429 0.19604264 0.2163799 -0.093477115 -0.12179088 -0.047708068
0.04936784 0.25523114 -0.2143816 0.017719898 0.0056222207 0.29708996 0.29067764 -0.4030754
0.16278331 0.34054103 0.24624097 -0.17037767 -0.05824891 -0.004361274 0.18773966 0.028648691
-0.18095367 0.21005782 -0.07160601 -0.019598806 -0.07590114 -0.0252749 0.2478109 0.226021
-0.06811089 0.19687927 -0.07606132 0.22489576 -0.01275982 0.01615878 0.18715172 0.30531475
0.24311379 -0.14970194 -0.019827576 0.0039063008 -0.051379733 -0.029252037 -0.06084008 -0.049889658
-0.006742928 0.1123029 0.06367858 -0.036303487 -0.01162146 -0.046578236 0.2692397 -0.16001837
0.28772262 -0.13107246 -0.0632371 0.04673391 0.49485248 0.25630885 -0.05155483 -0.00835378
0.011579017 -0.002926508 -0.07717813 -0.019969426 0.03517686 0.35361567 -0.39045665 0.32684752
-0.22938082 0.2939217 -0.0041188924 0.02595074 0.20451646 0.11355179 0.14772278 0.26468024
-0.19274853 0.16348499 0.09396699 0.29734308 -0.10509747 -0.035645872 0.3347003 -0.0879534
-0.02402771 0.07277375 -0.37853178 0.015750956 0.14911488 -0.14646195 -0.116867326 -0.057280183
0.17170171 -0.0041866996 -0.11177704 -0.14482291 -0.14597529 -0.01856111 -0.012213419 0.3200511
0.31959426 -0.12779307 -0.056891117 -0.14150888 -0.0838257 0.43768626 0.24446389 -0.025035333
0.25613853 0.048482455 -0.024158077 0.269051 0.2828226 -0.103917465 0.5106851 -0.036077216
0.30278575 -0.12029017 -0.14053251 0.24873205 0.2056299 -0.046256814 0.2893928 0.2123075

sequential/fc1/MatMul f4 [128, 12]
00000000: 573a 8a3d d414 2c3d 8567 c3bd af31 b2bc
00000010: a353 3ebd 6fd7 a2bd c463 1dbe bcef 863d
00000020: c6a0 6f3e a536 48be dfb9 dfbc 4aef 203e
00000030: 8872 24bd 68b9 983d ba68 453d fe0e 2e3b
00000040: 979d db3d c9f6 debd 2f6a 9dbd 5943 5ebd
00000050: 2034 233b 1101 e3bd 42b8 30be f60c 3d3e
00000060: 3c6c 7f3e b942 a73d 7907 1ebc 54f1 30be
00000070: e77b 913d e300 c2bd 7cfc 6abd 3e20 11be
00000080: 3ea6 023e b91e 35be 3a38 09bf 1cfe d33e
00000090: 131b 8cbd 985a 0c3c 0f68 98bc 740e cf3b
000000a0: 0077 08bc 6cab f9bd 82f0 3a3d 29d3 003e
000000b0: 0545 803d 5318 6dbd 3794 33bc 758c 143c
000000c0: 2db6 e93d e962 18be df8e 61be ce9b 00be
000000d0: bcd4 30be fa3d f43d 3c7b 193e ddd3 fc3d
000000e0: 9314 9d3e cca8 82bd 59b3 383e 4554 a53e
000000f0: 1537 2a3e 328e 283e 7321 113d c1c0 b83d
00000100: 8729 0bbe 3137 14be 9d5d 0c3c 144e 7cbd
00000110: 792a 873e 37a7 773c c085 c6be 666e c43b
00000120: 22c9 093e dbaa 9dbd 92cc aa3d 4326 29bc
00000130: 84cc 13be 2b81 bcbc 28f8 53be 613e f1bd
00000140: 27f4 6d3e fa6e 143e 43c8 cebd 68a5 ce3e
00000150: 0148 ba3d 3415 633d bab3 bf3d 19bf 733e
00000160: 0f49 f1bc 9c3f e6bc 7a43 f73c 4942 983c
00000170: 82a8 083e 83f4 29be 8c33 e6be 2396 92bd
00000180: 8ae2 613c 2f21 ba3d 3ede a6bd 3103 d33d
00000190: 4dbf 03be 695a 63bd 4096 9b3d 76c7 07be
000001a0: 22ba 423e cc2d 29be ce99 0cbe 970a 043e
000001b0: 59bd 09bc b344 743d ac3f 99bd 6566 f73d
000001c0: 3066 e73d 3be4 21be 1359 b23d 0c82 eb3d
000001d0: 0dcc df3d f265 37be 650b 99be 4c0b b93e
000001e0: 65f9 033c bcfd 073d d4ba c53d 7d8c c8bc
000001f0: b0e8 3abd 703e 4c3e db61 ed3d 8c08 fcbd
00000200: ec66 803d 1a34 e1bd a0c6 74be 2ebb 61bd
00000210: 6475 c83d 7467 c03d 2a49 9b3d b136 1abe
00000220: b5d2 32be e504 d83d cc5b 1b3d dcd8 b4bd
00000230: cc7f 2ebe aa62 08bd f4ae ab3d 966f 473d
00000240: b876 0dbe 73da 09bd 44f8 ea3d 9826 19bd
00000250: 5560 15be f887 b6bc f1ef ec3d 6c9b 083e
00000260: 3adb c7bd 3517 4cbe 71c7 0a3e 65b5 5b3e
00000270: 3c66 203d 0773 8abc 09dd e4bd 5c90 023e
00000280: efca e23d 44de 2cbe 49ad 89b9 3964 063e
00000290: 00af f0bc 9e3b d4bc f66c d03b daf6 ca3d
000002a0: 55a1 d33d de0c b9bc c904 72bd 994e 6ebc
000002b0: 1454 d3bd 2129 5bbc c988 f63d 679e fe3d
000002c0: f99e 1b3e 0630 07be 28cd fcbd 8ec9 9e3d
000002d0: 6f29 213e b78a a63e fc31 cabd 8f92 163e
000002e0: 483a be3d 3bd0 783d 7ad3 04be 9f4f 3cbe
000002f0: 8d35 8abd ef70 9ebe 2c6d eb3d 5640 d43c
00000300: 7873 2bbe 4414 1fbe 7673 af3d b7d3 f53d
00000310: 39d4 69be 0a64 c23e b0e7 50bd eb19 013f
00000320: 634b 803d 67e7 aabd 4240 9f3e b13e 54bf
00000330: 654e 17be 26dc 96bd f9c5 ef3d cd82 003e
00000340: a09a 66bd 58c9 33be c192 8abc b84b a03d
00000350: e2fb d7bd d40e 17be cb74 723e 8d0a 823e
00000360: 7cfd 79bd ebc3 aabd 9af8 813d 8640 32be
00000370: 3953 95bd 2cf8 cb3d f438 203e eb95 ef3d
00000380: c7b7 86bd 5209 fabd d8de 463c 3df3 323e
00000390: 638a 533e 9d89 1c3e dda6 04bc 6617 1e3c
000003a0: 64df 7f3e fe23 22be d327 bfbd d0c5 123e
000003b0: e901 5c3d f287 ebbd c021 d9be e600 e53d
000003c0: 0104 0cbe b660 493e d305 3b3e 5898 13bd
000003d0: 629e b93d f129 cfbd f311 9b3e fb2a 47bd
000003e0: 33e3 173e dc22 c7be f55b eabe 1c04 1b3f
000003f0: 050e 0abe 198c a4bd 68af 4dbd dfb0 3c3d
0.06749409 0.04201205 -0.09541229 -0.021752207 -0.04646648 -0.07951247 -0.15370089 0.065886945
0.23401174 -0.19552095 -0.02731031 0.15716282 -0.040148288 0.074572384 0.04819558 0.002655923
0.10723417 -0.10886914 -0.076862685 -0.054263446 0.0024902895 -0.11084188 -0.17257789 0.18461975
0.24943632 0.08167023 -0.009645336 -0.1727956 0.071037106 -0.094728254 -0.057369694 -0.14172456
0.12758729 -0.17687501 -0.5360142 0.41404808 -0.068411015 0.008566521 -0.018604307 0.0063188616
-0.008329153 -0.12190899 0.045639522 0.12580551 0.062631644 -0.057884526 -0.01096063 0.009066691
0.114117004 -0.14881481 -0.22027157 -0.12559435 -0.17268652 0.119258836 0.14988416 0.12345097
0.3067976 -0.06379852 0.18037166 0.32290855 0.16622575 0.16460493 0.03543229 0.0902114
-0.1359006 -0.14474179 0.008567241 -0.0615979 0.26399592 0.015115551 -0.38773918 0.005994606
0.13455632 -0.07698604 0.083398 -0.010324064 -0.14433485 -0.02301081 -0.20700133 -0.11779476
0.23237668 0.14495459 -0.10096791 0.4036057 0.09095765 0.055440143 0.09360452 0.23803367
-0.029453782 -0.028106503 0.030183543 0.018586295 0.1334553 -0.1659718 -0.44961202 -0.071575426
0.013786921 0.090883605 -0.08147858 0.10303343 -0.12865944 -0.055506144 0.07597017 -0.13259682
0.19016317 -0.16521376 -0.13730547 0.12894665 -0.00840696 0.05963583 -0.074828476 0.12080077
0.112987876 -0.1580972 0.08708396 0.11499414 0.109275915 -0.17909983 -0.29891506 0.3614143
0.008055066 0.033200964 0.09654775 -0.024481053 -0.045632064 0.19945693 0.1159093 -0.12306318
0.06269631 -0.10996266 -0.23903894 -0.05511015 0.097880155 0.09394732 0.07582314 -0.15059926
-0.17463191 0.105478086 0.03792934 -0.08830425 -0.17040938 -0.03329722 0.08382979 0.0486904
-0.13814819 -0.033655595 0.11473134 -0.03739032 -0.14587529 -0.022281632 0.11569203 0.13340539
-0.09758611 -0.19930728 0.13552643 0.21455915 0.03916 -0.016900552 -0.111749716 0.12750381
0.11073863 -0.16881663 -0.00026259784 0.1312417 -0.029380322 -0.025907334 0.0063606454 0.099103644
0.10333506 -0.022589143 -0.059086595 -0.014545106 -0.10318771 -0.013376505 0.120378084 0.124325566
0.15197362 -0.13201913 -0.12343818 0.07753287 0.15738462 0.32527706 -0.09872815 0.14704345
0.0928846 0.06074546 -0.12971297 -0.18389748 -0.06748495 -0.30945536 0.11495432 0.025909584
-0.16743267 -0.15535074 0.08566944 0.12003272 -0.22834863 0.3796695 -0.051002204 0.5043017
0.06264379 -0.08344918 0.31103712 -0.8290816 -0.14775999 -0.07366209 0.11707682 0.12549897
-0.056299806 -0.17557275 -0.01691568 0.07826942 -0.1054609 -0.1475175 0.23677365 0.25398675
-0.061032757 -0.0833815 0.06346245 -0.17407426 -0.07291264 0.099594444 0.15646726 0.116985165
-0.065780215 -0.12208809 0.012138091 0.174756 0.20658259 0.1528687 -0.008096424 0.009649133
0.2498756 -0.15834042 -0.09333768 0.14333272 0.05371276 -0.11500539 -0.42408562 0.11181812
-0.13673402 0.19665799 0.1826394 -0.03603396 0.09063412 -0.101154216 0.30287132 -0.048624974
0.14832763 -0.38893783 -0.45773283 0.60553145 -0.1348191 -0.08034534 -0.05021611 0.046067115

sequential/fc2/MatMul f4 [128, 128]
00000000: e240 fc3c 71fb b53d 25c4 11be e530 753d
00000010: 34a6 99bd e497 0cbe 3fe0 523d 4a38 54bd
00000020: bb50 0a3e fdda 033c 39ac 6a3d 665b ebbd
00000030: a537 ccbc 363a 1bbb a75d 033b 2a5e 6f3d
00000040: be60 5abc bf57 00be c022 7b3d 063f c73d
00000050: 3195 bd3d 3bf8 f9bd 0727 fabd a309 14be
00000060: 5d72 8bbd 774a d5bd 19eb 93bd ad49 c9bd
00000070: 9980 3fbd 3536 fdbc 6b8f 00be 7719 ab3c
00000080: 3413 af3d afdf 963d 5480 00ba 48f0 043e
00000090: 5512 0dbe a1c3 2dbe 728d 10be a409 c5bd
000000a0: 6860 23be e6b7 97bd fab0 123d 2d08 13be
000000b0: 7e75 8e3d fac5 c6bd c94a cabd b083 e33d
000000c0: 28cc d6bd 0fef b7bd 2e03 c3bd ef3f d23d
000000d0: 681e 2c3d 5503 f8bd a4b8 623d 129a f7bb
000000e0: 7580 943d fe37 c4bd 1a51 e0bd 4772 01be
000000f0: 59ab 2ebd 4f83 35be 03d6 a6bd 5496 a8bd
00000100: c0ff 0bbe a36f 32be 4719 153d 789f b33d
00000110: 4df3 1bbe a578 083e 29e4 a83b a858 20be
00000120: 11bb 56be cba8 843d 6cd7 bdbc 7477 34bd
00000130: baa3 13be 589e f7bd 2e51 89bd 6fc4 efbd
00000140: 1e36 ffbc 6ec1 dcbd 6c14 903d 4a05 673d
00000150: ef6e 573d 0df0 253d 48c4 0cbc 9313 dd3d
00000160: c413 5cbc ceb5 f5ba eade 9ebd 81e6 3bbe
00000170: 4eee adbd 1e2b 12bb f80a bcbd 3da2 10be
00000180: 3b4e dcbb 94e4 083e 389b 58bd 5999 f0bd
00000190: 5575 04be d4b1 74bc f086 58bd 45dc d53d
000001a0: 4455 0bbc 8c45 4bbe a282 dfbd f229 dabd
000001b0: 320f adbd 5014 f4bd 8479 563d dfaa f83c
000001c0: 46cc 1dbd 9ae7 e23d cd8c b23d 356b b6bd
000001d0: bcee e5bd 316e 06be e08b 2cbb 1c97 3bbe
000001e0: 4b1b 843c b21a 073e a753 14be 0bd6 c03d
000001f0: bdbe a2bd 5045 723d e35a d83c 3821 c13c
00000200: d161 fabc 9d18 56be 9a6b b9bd ba0d 02bd
00000210: fb2c 0e3c 4198 63bd c369 25be e76e 9bbd
00000220: 0289 103e 42aa 68be 4d1c 1f3d 366f a8bd
00000230: ec79 3bbe fd18 ca3d 161d 52bd 02c8 bb3b
00000240: 4f4e e43d 315d d0bc c920 68be b1d2 be3d
00000250: b7c4 283c cd88 1bbe 1582 ecbd 054b d3bc
00000260: dacf 61bd 3ebe 2ebd b928 a8bd 385e 55bd
00000270: aade f2bd 10d1 5fbd ab18 a43d e70b 84bd
00000280: ea0d 1fbe 6bc3 013e d449 763d 27f7 25be
00000290: 6ef7 bcbd 54fa 23bd 35a8 11be 3dc1 c9bd
000002a0: 68ea fdbd 5aba 2abd 1565 9e3d d05c 943d
000002b0: 3ef5 733d c0d5 80bd 5f51 e7bc b4f8 37be
000002c0: ae27 50bd 073e 8dbd 9edb f0bd e47d f7bd
000002d0: 9da0 25be fd9c c73c 66c5 85bd 9a6b 10be
000002e0: 43cc f33d 8ed9 2cbe 1269 aebd 0ec6 b7bb
000002f0: ec2c 3fbd e696 53be e717 0dbe 67d7 c03c
00000300: e5cf 43be 5858 a03d 6a20 9f3d 26d6 803d
00000310: e516 3c3d 9ad2 6b3d f9f9 e43c b9a2 c4bd
00000320: 0ccd 253d 7d4e 94bd 7b75 05be 4fe6 253c
00000330: 909b 63be b883 a83c 83ff a0bd 7f3c ce3d
00000340: 0565 e1bd b80e c6bd 7de0 b63d 838d 2cbd
00000350: f53c ebb9 fb29 ae3d 40b2 06be 2775 b8bd
00000360: 7ea3 c23d 6ddb a03d 6d07 aebd f42e ca3d
00000370: ae75 8c3d 4d42 8ebc a6c6 183d ac3f 10be
00000380: 1c96 20be ad09 1ebe 8110 023e 59a7 bc3d
00000390: 6d9e efbd 3a50 0b3e 5c77 14bd 54cc efbd
000003a0: 58f7 553d 22ed 80bd d51a 88bc 813b 0fbe
000003b0: 534a 1ebe 3751 493d b5ec 9bba e0e0 f6bd
000003c0: d3cd d2bd afa1 25bd 9b67 4d3d 760d 0ebe
000003d0: d183 09be 4c3a f0bd 70ab d1bd 8ae4 3ebe
000003e0: da9d 69bd 5a6a 593b b06d 46be 54a6 03be
000003f0: ea81 06be bb3e 40be 834f 18be 8f07 35bd
0.030792657 0.08885849 -0.1423498 0.059861083 -0.07502404 -0.13729817 0.05148339 -0.051811494
0.13507359 0.008047816 0.05729315 -0.11492042 -0.024928877 -0.002368582 0.0020044835 0.05843941
-0.013328729 -0.12533472 0.061312437 0.09728818 0.09256972 -0.12205549 -0.12214475 -0.14456801
-0.068089224 -0.10414594 -0.07222576 -0.09828506 -0.0467535 -0.030909637 -0.1255471 0.020886166
0.085485846 0.07366883 -0.0004901935 0.12982285 -0.13776524 -0.16969158 -0.14116457 -0.096209794
-0.15954745 -0.07408123 0.03581331 -0.14358588 0.069560036 -0.0970573 -0.098775454 0.11109102
-0.104881585 -0.08981144 -0.09522091 0.102661006 0.042021185 -0.121100105 0.05535187 -0.0075562084
0.07251064 -0.09580992 -0.10952969 -0.1264125 -0.04264388 -0.17725872 -0.08146288 -0.08231798
-0.1367178 -0.17425399 0.03640106 0.087706506 -0.1522953 0.13327272 0.005154152 -0.1565882
-0.20969798 0.06477507 -0.02317401 -0.044059232 -0.14417925 -0.120907485 -0.06704937 -0.117073886
-0.031153735 -0.10779081 0.07035145 0.05640153 0.05259603 0.040512133 -0.008591719 0.10794749
-0.013432447 -0.0018746199 -0.07757361 -0.18349649 -0.08492719 -0.0022303532 -0.091817796 -0.14124389
-0.006723193 0.13368446 -0.052882403 -0.11747999 -0.12935384 -0.014934976 -0.05286306 0.10442404
-0.008504216 -0.19850749 -0.10913588 -0.10652532 -0.08450164 -0.11917937 0.05236198 0.030354915
-0.03852489 0.11079331 0.08718262 -0.08907167 -0.112271756 -0.13127972 -0.002632849 -0.18319362
0.016126296 0.13193777 -0.14485036 0.094158255 -0.07946537 0.059148133 0.026410526 0.02357541
-0.03056422 -0.20907827 -0.090537265 -0.031751372 0.008677716 -0.055565123 -0.16153626 -0.07589512
0.14114764 -0.22721198 0.03884535 -0.08224337 -0.18308228 0.098680474 -0.05129727 0.00573063
0.11147749 -0.025435062 -0.22668757 0.0931753 0.010300807 -0.15188904 -0.11548249 -0.025792608
-0.055129863 -0.042661898 -0.08210892 -0.052091807 -0.11858876 -0.054642737 0.080125175 -0.06447583
-0.15532652 0.12672202 0.060129 -0.16207562 -0.09226881 -0.040033653 -0.14224322 -0.098513104
-0.12398225 -0.041681625 0.077341236 0.07244265 0.059560053 -0.062907696 -0.028237043 -0.17965966
-0.05081909 -0.068965964 -0.11760639 -0.120845586 -0.1617455 0.02436685 -0.065317914 -0.14103547
0.11904194 -0.16879866 -0.08516134 -0.0056083268 -0.0466737 -0.20663032 -0.1377865 0.023540212
-0.19122274 0.0782935 0.07769854 0.062908456 0.04592027 0.057573892 0.027951228 -0.096013494
0.04047875 -0.07241533 -0.13033096 0.010125711 -0.22227311 0.02057062 -0.07861235 0.100701325
-0.11005596 -0.09670776 0.089295365 -0.042127144 -0.0004486811 0.08504101 -0.13153934 -0.0900672
0.0950384 0.07854352 -0.0849751 0.09872237 0.06858383 -0.017365599 0.03729882 -0.14086789
-0.15682262 -0.15433379 0.12701608 0.092116065 -0.11700139 0.13604823 -0.036246642 -0.11708894
0.05223784 -0.062952295 -0.016614357 -0.13987543 -0.1545804 0.049149718 -0.0011896106 -0.1205461
-0.10293164 -0.040437397 0.050147634 -0.13872322 -0.1342919 -0.11729869 -0.10237777 -0.18641868
-0.057035305 0.0033174963 -0.1937778 -0.12856418 -0.13135496 -0.1877393 -0.14874081 -0.04419666
